…
        },
        "id": "9XXqvvUwP3-g",
        "outputId": "8055fb97-2b44-447f-ed46-0274264cb328"
      },
      "source": [
        "model.summary()"
      ],
      "execution_count": 10,
      "outputs": [
        {
          "output_type": "stream",
          "text": [
            "Model: \"sequential\"\n",
            "_________________________________________________________________\n",
            "Layer (type)                 Output Shape              Param #   \n",
            "=================================================================\n",
            "conv2d (Conv2D)              (None, 48, 48, 32)        896       \n",
            "_________________________________________________________________\n",
            "max_pooling2d (MaxPooling2D) (None, 24, 24, 32)        0         \n",
            "_________________________________________________________________\n",
            "conv2d_1 (Conv2D)            (None, 22, 22, 32)        9248      \n",
            "_________________________________________________________________\n",
            "max_pooling2d_1 (MaxPooling2 (None, 11, 11, 32)        0         \n",
            "_________________________________________________________________\n",
            "flatten (Flatten)            (None, 3872)              0         \n",
            "_________________________________________________________________\n",
            "dropout (Dropout)            (None, 3872)              0         \n",
            "_________________________________________________________________\n",
            "dense (Dense)                (None, 128)               495744    \n",
            "_________________________________________________________________\n",
            "dense_1 (Dense)              (None, 2)                 258       \n",
            "=================================================================\n",
            "Total params: 506,146\n",
            "Trainable params: 506,146\n",
            "Non-trainable params: 0\n",
            "_________________________________________________________________\n"
          ],
          "name": "stdout"
        }
      ]
    },
    {
      "cell_type": "code",
      "metadata": {
…
